nohup: ignoring input
xxxxx
xxxxx
celeba
custom arguments: Namespace(batch_size=64, beta1=0.5, cuda=False, dataset='celeba', dataset_root='./dataset/', image_size=64, lr=0.0002, n_sample_per_n_batches=100, netD_path='', netG_path='', nrow=8, num_df=64, num_epochs=25, num_gf=64, num_gpus=1, num_workers=4, output_dir='.', random_seed=None, z_dim=100)
random seed: 1066
WANGING: you have a cuda device available,you may specify --cuda to enable it.
10000
Generator Info:
Generator(
  (net): Sequential(
    (0): ConvTranspose2d(100, 512, kernel_size=(4, 4), stride=(1, 1), bias=False)
    (1): BatchNorm2d(512, eps=1e-05, momentum=0.1, affine=True, track_running_stats=True)
    (2): ReLU(inplace)
    (3): ConvTranspose2d(512, 256, kernel_size=(4, 4), stride=(2, 2), padding=(1, 1), bias=False)
    (4): BatchNorm2d(256, eps=1e-05, momentum=0.1, affine=True, track_running_stats=True)
    (5): ReLU(inplace)
    (6): ConvTranspose2d(256, 128, kernel_size=(4, 4), stride=(2, 2), padding=(1, 1), bias=False)
    (7): BatchNorm2d(128, eps=1e-05, momentum=0.1, affine=True, track_running_stats=True)
    (8): ReLU(inplace)
    (9): ConvTranspose2d(128, 64, kernel_size=(4, 4), stride=(2, 2), padding=(1, 1), bias=False)
    (10): BatchNorm2d(64, eps=1e-05, momentum=0.1, affine=True, track_running_stats=True)
    (11): ReLU(inplace)
    (12): ConvTranspose2d(64, 3, kernel_size=(4, 4), stride=(2, 2), padding=(1, 1), bias=False)
    (13): Tanh()
  )
)
Discriminator Info:
Discriminator(
  (net): Sequential(
    (0): Conv2d(3, 64, kernel_size=(4, 4), stride=(2, 2), padding=(1, 1), bias=False)
    (1): LeakyReLU(negative_slope=0.2, inplace)
    (2): Conv2d(64, 128, kernel_size=(4, 4), stride=(2, 2), padding=(1, 1), bias=False)
    (3): BatchNorm2d(128, eps=1e-05, momentum=0.1, affine=True, track_running_stats=True)
    (4): LeakyReLU(negative_slope=0.2, inplace)
    (5): Conv2d(128, 256, kernel_size=(4, 4), stride=(2, 2), padding=(1, 1), bias=False)
    (6): BatchNorm2d(256, eps=1e-05, momentum=0.1, affine=True, track_running_stats=True)
    (7): LeakyReLU(negative_slope=0.2, inplace)
    (8): Conv2d(256, 512, kernel_size=(4, 4), stride=(2, 2), padding=(1, 1), bias=False)
    (9): BatchNorm2d(512, eps=1e-05, momentum=0.1, affine=True, track_running_stats=True)
    (10): LeakyReLU(negative_slope=0.2, inplace)
    (11): Conv2d(512, 1, kernel_size=(4, 4), stride=(2, 2), bias=False)
    (12): Sigmoid()
  )
)
epoch:0/25,n_batch:0/157,loss_real_D:0.5866,loss_fake_D:1.489,loss_G:1.386
epoch:0/25,n_batch:1/157,loss_real_D:0.3755,loss_fake_D:1.669,loss_G:1.267
epoch:0/25,n_batch:2/157,loss_real_D:0.3253,loss_fake_D:2.075,loss_G:1.026
epoch:0/25,n_batch:3/157,loss_real_D:0.2358,loss_fake_D:2.088,loss_G:0.9912
epoch:0/25,n_batch:4/157,loss_real_D:0.3823,loss_fake_D:1.848,loss_G:1.228
…
